…
-Total number of images in augmented combined set: 10416
~Categorical accuracy non-augmented combined set: 99.4%
~Loss (Categorical Cross Entropy) non-augmented combined set: 0.02
~Total number of images in non-augmented combined set: 1731
******************************************************************************************************************************************************
Model summary:
Model: "sequential"
_________________________________________________________________
 Layer (type)                Output Shape              Param #   
=================================================================
 conv2d (Conv2D)             (None, 21, 3, 32)         320       
                                                                 
 batch_normalization (BatchN  (None, 21, 3, 32)        128       
 ormalization)                                                   
                                                                 
 conv2d_1 (Conv2D)           (None, 21, 3, 64)         18496     
                                                                 
 batch_normalization_1 (Batc  (None, 21, 3, 64)        256       
 hNormalization)                                                 
                                                                 
 max_pooling2d (MaxPooling2D  (None, 11, 2, 64)        0         
 )                                                               
                                                                 
 conv2d_2 (Conv2D)           (None, 11, 2, 64)         36928     
                                                                 
 batch_normalization_2 (Batc  (None, 11, 2, 64)        256       
 hNormalization)                                                 
                                                                 
 max_pooling2d_1 (MaxPooling  (None, 5, 1, 64)         0         
 2D)                                                             
                                                                 
 flatten (Flatten)           (None, 320)               0         
                                                                 
 dropout (Dropout)           (None, 320)               0         
                                                                 
 dense (Dense)               (None, 512)               164352    
                                                                 
 dropout_1 (Dropout)         (None, 512)               0         
                                                                 
 dense_1 (Dense)             (None, 256)               131328    
                                                                 
 dropout_2 (Dropout)         (None, 256)               0         
                                                                 
 dense_2 (Dense)             (None, 128)               32896     
                                                                 
 dropout_3 (Dropout)         (None, 128)               0         
                                                                 
 dense_3 (Dense)             (None, 128)               16512     
                                                                 
 dropout_4 (Dropout)         (None, 128)               0         
                                                                 
 dense_4 (Dense)             (None, 3)                 387       
                                                                 
=================================================================
Total params: 401,859
Trainable params: 401,539
Non-trainable params: 320
_________________________________________________________________
******************************************************************************************************************************************************
…
